{"format": "layers-model", "generatedBy": "keras v3.3.3", "convertedBy": "TensorFlow.js Converter v4.19.0", "modelTopology": {"keras_version": "3.3.3", "backend": "tensorflow", "model_config": {"class_name": "Sequential", "config": {"name": "sequential", "trainable": true, "dtype": "float32", "layers": [{"class_name": "InputLayer", "config": {"input_shape": [224, 224, 3], "dtype": "float32", "sparse": false, "name": "input_layer"}}, {"class_name": "Conv2D", "config": {"name": "conv2d", "trainable": true, "dtype": "float32", "filters": 32, "kernel_size": [3, 3], "strides": [1, 1], "padding": "valid", "data_format": "channels_last", "dilation_rate": [1, 1], "groups": 1, "activation": "relu", "use_bias": true, "kernel_initializer": {"module": "keras.initializers", "class_name": "GlorotUniform", "config": {"seed": null}, "registered_name": null}, "bias_initializer": {"module": "keras.initializers", "class_name": "Zeros", "config": {}, "registered_name": null}, "kernel_regularizer": null, "bias_regularizer": null, "activity_regularizer": null, "kernel_constraint": null, "bias_constraint": null}}, {"class_name": "MaxPooling2D", "config": {"name": "max_pooling2d", "trainable": true, "dtype": "float32", "pool_size": [2, 2], "padding": "valid", "strides": [2, 2], "data_format": "channels_last"}}, {"class_name": "Conv2D", "config": {"name": "conv2d_1", "trainable": true, "dtype": "float32", "filters": 64, "kernel_size": [3, 3], "strides": [1, 1], "padding": "valid", "data_format": "channels_last", "dilation_rate": [1, 1], "groups": 1, "activation": "relu", "use_bias": true, "kernel_initializer": {"module": "keras.initializers", "class_name": "GlorotUniform", "config": {"seed": null}, "registered_name": null}, "bias_initializer": {"module": "keras.initializers", "class_name": "Zeros", "config": {}, "registered_name": null}, "kernel_regularizer": null, "bias_regularizer": null, "activity_regularizer": null, "kernel_constraint": null, "bias_constraint": null}}, {"class_name": "MaxPooling2D", "config": {"name": "max_pooling2d_1", "trainable": true, "dtype": "float32", "pool_size": [2, 2], "padding": "valid", "strides": [2, 2], "data_format": "channels_last"}}, {"class_name": "Flatten", "config": {"name": "flatten", "trainable": true, "dtype": "float32", "data_format": "channels_last"}}, {"class_name": "Dense", "config": {"name": "dense", "trainable": true, "dtype": "float32", "units": 256, "activation": "relu", "use_bias": true, "kernel_initializer": {"module": "keras.initializers", "class_name": "GlorotUniform", "config": {"seed": null}, "registered_name": null}, "bias_initializer": {"module": "keras.initializers", "class_name": "Zeros", "config": {}, "registered_name": null}, "kernel_regularizer": null, "bias_regularizer": null, "kernel_constraint": null, "bias_constraint": null}}, {"class_name": "Dense", "config": {"name": "dense_1", "trainable": true, "dtype": "float32", "units": 2, "activation": "softmax", "use_bias": true, "kernel_initializer": {"module": "keras.initializers", "class_name": "GlorotUniform", "config": {"seed": null}, "registered_name": null}, "bias_initializer": {"module": "keras.initializers", "class_name": "Zeros", "config": {}, "registered_name": null}, "kernel_regularizer": null, "bias_regularizer": null, "kernel_constraint": null, "bias_constraint": null}}], "build_input_shape": [null, 224, 224, 3]}}, "training_config": {"loss": "categorical_crossentropy", "loss_weights": null, "metrics": ["accuracy"], "weighted_metrics": null, "run_eagerly": false, "steps_per_execution": 1, "jit_compile": false, "optimizer_config": {"class_name": "Adam", "config": {"name": "adam", "learning_rate": 0.0010000000474974513, "weight_decay": null, "clipnorm": null, "global_clipnorm": null, "clipvalue": null, "use_ema": false, "ema_momentum": 0.99, "ema_overwrite_frequency": null, "loss_scale_factor": null, "gradient_accumulation_steps": null, "beta_1": 0.9, "beta_2": 0.999, "epsilon": 1e-07, "amsgrad": false}}}}, "weightsManifest": [{"paths": ["group1-shard1of46.bin", "group1-shard2of46.bin", "group1-shard3of46.bin", "group1-shard4of46.bin", "group1-shard5of46.bin", "group1-shard6of46.bin", "group1-shard7of46.bin", "group1-shard8of46.bin", "group1-shard9of46.bin", "group1-shard10of46.bin", "group1-shard11of46.bin", "group1-shard12of46.bin", "group1-shard13of46.bin", "group1-shard14of46.bin", "group1-shard15of46.bin", "group1-shard16of46.bin", "group1-shard17of46.bin", "group1-shard18of46.bin", "group1-shard19of46.bin", "group1-shard20of46.bin", "group1-shard21of46.bin", "group1-shard22of46.bin", "group1-shard23of46.bin", "group1-shard24of46.bin", "group1-shard25of46.bin", "group1-shard26of46.bin", "group1-shard27of46.bin", "group1-shard28of46.bin", "group1-shard29of46.bin", "group1-shard30of46.bin", "group1-shard31of46.bin", "group1-shard32of46.bin", "group1-shard33of46.bin", "group1-shard34of46.bin", "group1-shard35of46.bin", "group1-shard36of46.bin", "group1-shard37of46.bin", "group1-shard38of46.bin", "group1-shard39of46.bin", "group1-shard40of46.bin", "group1-shard41of46.bin", "group1-shard42of46.bin", "group1-shard43of46.bin", "group1-shard44of46.bin", "group1-shard45of46.bin", "group1-shard46of46.bin"], "weights": [{"name": "sequential/conv2d/kernel", "shape": [3, 3, 3, 32], "dtype": "float32"}, {"name": "sequential/conv2d/bias", "shape": [32], "dtype": "float32"}, {"name": "sequential/conv2d_1/kernel", "shape": [3, 3, 32, 64], "dtype": "float32"}, {"name": "sequential/conv2d_1/bias", "shape": [64], "dtype": "float32"}, {"name": "sequential/dense/kernel", "shape": [186624, 256], "dtype": "float32"}, {"name": "sequential/dense/bias", "shape": [256], "dtype": "float32"}, {"name": "sequential/dense_1/kernel", "shape": [256, 2], "dtype": "float32"}, {"name": "sequential/dense_1/bias", "shape": [2], "dtype": "float32"}]}]}
